2021-11-12 18:25:20 [INFO]: Begin training...
2021-11-12 18:25:20 [INFO]: use_cuda, device: True, cuda:0
2021-11-12 18:25:20 [INFO]: model: BertTCREpitopeModel(
  (bert): ProteinBertModel(
    (embeddings): ProteinBertEmbeddings(
      (word_embeddings): Embedding(30, 768, padding_idx=0)
      (position_embeddings): Embedding(8192, 768)
      (token_type_embeddings): Embedding(1, 768)
      (LayerNorm): LayerNorm()
      (dropout): Dropout(p=0.1)
    )
    (encoder): ProteinBertEncoder(
      (layer): ModuleList(
        (0): ProteinBertLayer(
          (attention): ProteinBertAttention(
            (self): ProteinBertSelfAttention(
              (query): Linear(in_features=768, out_features=768, bias=True)
              (key): Linear(in_features=768, out_features=768, bias=True)
              (value): Linear(in_features=768, out_features=768, bias=True)
              (dropout): Dropout(p=0.1)
            )
            (output): ProteinBertSelfOutput(
              (dense): Linear(in_features=768, out_features=768, bias=True)
              (LayerNorm): LayerNorm()
              (dropout): Dropout(p=0.1)
            )
          )
          (intermediate): ProteinBertIntermediate(
            (dense): Linear(in_features=768, out_features=3072, bias=True)
          )
          (output): ProteinBertOutput(
            (dense): Linear(in_features=3072, out_features=768, bias=True)
            (LayerNorm): LayerNorm()
            (dropout): Dropout(p=0.1)
          )
        )
        (1): ProteinBertLayer(
          (attention): ProteinBertAttention(
            (self): ProteinBertSelfAttention(
              (query): Linear(in_features=768, out_features=768, bias=True)
              (key): Linear(in_features=768, out_features=768, bias=True)
              (value): Linear(in_features=768, out_features=768, bias=True)
              (dropout): Dropout(p=0.1)
            )
            (output): ProteinBertSelfOutput(
              (dense): Linear(in_features=768, out_features=768, bias=True)
              (LayerNorm): LayerNorm()
              (dropout): Dropout(p=0.1)
            )
          )
          (intermediate): ProteinBertIntermediate(
            (dense): Linear(in_features=768, out_features=3072, bias=True)
          )
          (output): ProteinBertOutput(
            (dense): Linear(in_features=3072, out_features=768, bias=True)
            (LayerNorm): LayerNorm()
            (dropout): Dropout(p=0.1)
          )
        )
        (2): ProteinBertLayer(
          (attention): ProteinBertAttention(
            (self): ProteinBertSelfAttention(
              (query): Linear(in_features=768, out_features=768, bias=True)
              (key): Linear(in_features=768, out_features=768, bias=True)
              (value): Linear(in_features=768, out_features=768, bias=True)
              (dropout): Dropout(p=0.1)
            )
            (output): ProteinBertSelfOutput(
              (dense): Linear(in_features=768, out_features=768, bias=True)
              (LayerNorm): LayerNorm()
              (dropout): Dropout(p=0.1)
            )
          )
          (intermediate): ProteinBertIntermediate(
            (dense): Linear(in_features=768, out_features=3072, bias=True)
          )
          (output): ProteinBertOutput(
            (dense): Linear(in_features=3072, out_features=768, bias=True)
            (LayerNorm): LayerNorm()
            (dropout): Dropout(p=0.1)
          )
        )
        (3): ProteinBertLayer(
          (attention): ProteinBertAttention(
            (self): ProteinBertSelfAttention(
              (query): Linear(in_features=768, out_features=768, bias=True)
              (key): Linear(in_features=768, out_features=768, bias=True)
              (value): Linear(in_features=768, out_features=768, bias=True)
              (dropout): Dropout(p=0.1)
            )
            (output): ProteinBertSelfOutput(
              (dense): Linear(in_features=768, out_features=768, bias=True)
              (LayerNorm): LayerNorm()
              (dropout): Dropout(p=0.1)
            )
          )
          (intermediate): ProteinBertIntermediate(
            (dense): Linear(in_features=768, out_features=3072, bias=True)
          )
          (output): ProteinBertOutput(
            (dense): Linear(in_features=3072, out_features=768, bias=True)
            (LayerNorm): LayerNorm()
            (dropout): Dropout(p=0.1)
          )
        )
        (4): ProteinBertLayer(
          (attention): ProteinBertAttention(
            (self): ProteinBertSelfAttention(
              (query): Linear(in_features=768, out_features=768, bias=True)
              (key): Linear(in_features=768, out_features=768, bias=True)
              (value): Linear(in_features=768, out_features=768, bias=True)
              (dropout): Dropout(p=0.1)
            )
            (output): ProteinBertSelfOutput(
              (dense): Linear(in_features=768, out_features=768, bias=True)
              (LayerNorm): LayerNorm()
              (dropout): Dropout(p=0.1)
            )
          )
          (intermediate): ProteinBertIntermediate(
            (dense): Linear(in_features=768, out_features=3072, bias=True)
          )
          (output): ProteinBertOutput(
            (dense): Linear(in_features=3072, out_features=768, bias=True)
            (LayerNorm): LayerNorm()
            (dropout): Dropout(p=0.1)
          )
        )
        (5): ProteinBertLayer(
          (attention): ProteinBertAttention(
            (self): ProteinBertSelfAttention(
              (query): Linear(in_features=768, out_features=768, bias=True)
              (key): Linear(in_features=768, out_features=768, bias=True)
              (value): Linear(in_features=768, out_features=768, bias=True)
              (dropout): Dropout(p=0.1)
            )
            (output): ProteinBertSelfOutput(
              (dense): Linear(in_features=768, out_features=768, bias=True)
              (LayerNorm): LayerNorm()
              (dropout): Dropout(p=0.1)
            )
          )
          (intermediate): ProteinBertIntermediate(
            (dense): Linear(in_features=768, out_features=3072, bias=True)
          )
          (output): ProteinBertOutput(
            (dense): Linear(in_features=3072, out_features=768, bias=True)
            (LayerNorm): LayerNorm()
            (dropout): Dropout(p=0.1)
          )
        )
        (6): ProteinBertLayer(
          (attention): ProteinBertAttention(
            (self): ProteinBertSelfAttention(
              (query): Linear(in_features=768, out_features=768, bias=True)
              (key): Linear(in_features=768, out_features=768, bias=True)
              (value): Linear(in_features=768, out_features=768, bias=True)
              (dropout): Dropout(p=0.1)
            )
            (output): ProteinBertSelfOutput(
              (dense): Linear(in_features=768, out_features=768, bias=True)
              (LayerNorm): LayerNorm()
              (dropout): Dropout(p=0.1)
            )
          )
          (intermediate): ProteinBertIntermediate(
            (dense): Linear(in_features=768, out_features=3072, bias=True)
          )
          (output): ProteinBertOutput(
            (dense): Linear(in_features=3072, out_features=768, bias=True)
            (LayerNorm): LayerNorm()
            (dropout): Dropout(p=0.1)
          )
        )
        (7): ProteinBertLayer(
          (attention): ProteinBertAttention(
            (self): ProteinBertSelfAttention(
              (query): Linear(in_features=768, out_features=768, bias=True)
              (key): Linear(in_features=768, out_features=768, bias=True)
              (value): Linear(in_features=768, out_features=768, bias=True)
              (dropout): Dropout(p=0.1)
            )
            (output): ProteinBertSelfOutput(
              (dense): Linear(in_features=768, out_features=768, bias=True)
              (LayerNorm): LayerNorm()
              (dropout): Dropout(p=0.1)
            )
          )
          (intermediate): ProteinBertIntermediate(
            (dense): Linear(in_features=768, out_features=3072, bias=True)
          )
          (output): ProteinBertOutput(
            (dense): Linear(in_features=3072, out_features=768, bias=True)
            (LayerNorm): LayerNorm()
            (dropout): Dropout(p=0.1)
          )
        )
        (8): ProteinBertLayer(
          (attention): ProteinBertAttention(
            (self): ProteinBertSelfAttention(
              (query): Linear(in_features=768, out_features=768, bias=True)
              (key): Linear(in_features=768, out_features=768, bias=True)
              (value): Linear(in_features=768, out_features=768, bias=True)
              (dropout): Dropout(p=0.1)
            )
            (output): ProteinBertSelfOutput(
              (dense): Linear(in_features=768, out_features=768, bias=True)
              (LayerNorm): LayerNorm()
              (dropout): Dropout(p=0.1)
            )
          )
          (intermediate): ProteinBertIntermediate(
            (dense): Linear(in_features=768, out_features=3072, bias=True)
          )
          (output): ProteinBertOutput(
            (dense): Linear(in_features=3072, out_features=768, bias=True)
            (LayerNorm): LayerNorm()
            (dropout): Dropout(p=0.1)
          )
        )
        (9): ProteinBertLayer(
          (attention): ProteinBertAttention(
            (self): ProteinBertSelfAttention(
              (query): Linear(in_features=768, out_features=768, bias=True)
              (key): Linear(in_features=768, out_features=768, bias=True)
              (value): Linear(in_features=768, out_features=768, bias=True)
              (dropout): Dropout(p=0.1)
            )
            (output): ProteinBertSelfOutput(
              (dense): Linear(in_features=768, out_features=768, bias=True)
              (LayerNorm): LayerNorm()
              (dropout): Dropout(p=0.1)
            )
          )
          (intermediate): ProteinBertIntermediate(
            (dense): Linear(in_features=768, out_features=3072, bias=True)
          )
          (output): ProteinBertOutput(
            (dense): Linear(in_features=3072, out_features=768, bias=True)
            (LayerNorm): LayerNorm()
            (dropout): Dropout(p=0.1)
          )
        )
        (10): ProteinBertLayer(
          (attention): ProteinBertAttention(
            (self): ProteinBertSelfAttention(
              (query): Linear(in_features=768, out_features=768, bias=True)
              (key): Linear(in_features=768, out_features=768, bias=True)
              (value): Linear(in_features=768, out_features=768, bias=True)
              (dropout): Dropout(p=0.1)
            )
            (output): ProteinBertSelfOutput(
              (dense): Linear(in_features=768, out_features=768, bias=True)
              (LayerNorm): LayerNorm()
              (dropout): Dropout(p=0.1)
            )
          )
          (intermediate): ProteinBertIntermediate(
            (dense): Linear(in_features=768, out_features=3072, bias=True)
          )
          (output): ProteinBertOutput(
            (dense): Linear(in_features=3072, out_features=768, bias=True)
            (LayerNorm): LayerNorm()
            (dropout): Dropout(p=0.1)
          )
        )
        (11): ProteinBertLayer(
          (attention): ProteinBertAttention(
            (self): ProteinBertSelfAttention(
              (query): Linear(in_features=768, out_features=768, bias=True)
              (key): Linear(in_features=768, out_features=768, bias=True)
              (value): Linear(in_features=768, out_features=768, bias=True)
              (dropout): Dropout(p=0.1)
            )
            (output): ProteinBertSelfOutput(
              (dense): Linear(in_features=768, out_features=768, bias=True)
              (LayerNorm): LayerNorm()
              (dropout): Dropout(p=0.1)
            )
          )
          (intermediate): ProteinBertIntermediate(
            (dense): Linear(in_features=768, out_features=3072, bias=True)
          )
          (output): ProteinBertOutput(
            (dense): Linear(in_features=3072, out_features=768, bias=True)
            (LayerNorm): LayerNorm()
            (dropout): Dropout(p=0.1)
          )
        )
      )
    )
    (pooler): ProteinBertPooler(
      (dense): Linear(in_features=768, out_features=768, bias=True)
      (activation): Tanh()
    )
  )
  (classifier): SimpleMLP(
    (main): Sequential(
      (0): Linear(in_features=768, out_features=512, bias=True)
      (1): ReLU()
      (2): Dropout(p=0.0, inplace)
      (3): Linear(in_features=512, out_features=2, bias=True)
    )
  )
)
2021-11-12 18:25:20 [INFO]: train.n_data: 20110, test.n_data: 5028
2021-11-12 18:25:20 [INFO]: optimizer: Adam (
Parameter Group 0
    amsgrad: False
    betas: (0.9, 0.999)
    eps: 1e-08
    lr: 0.0001
    weight_decay: 0
)
2021-11-12 18:25:20 [INFO]: evaluator: <tcrbert.model.BertTCREpitopeModel.PredictionEvaluator object at 0x7f76f5ac97d0>
…
