…
ecode.result.json'}]}
2021-09-14 18:43:55 [INFO]: use_cuda: True
2021-09-14 18:43:55 [INFO]: Start 0 test for data: shomuradova, test_conf: {'data': 'shomuradova', 'result': '../output/exp1/eval.shomuradova.result.json'}
2021-09-14 18:43:55 [INFO]: Loaded test data for shomuradova len(eval_ds): 610
2021-09-14 18:43:55 [INFO]: ======================
2021-09-14 18:43:55 [INFO]: Begin predict...
2021-09-14 18:43:55 [INFO]: use_cuda, device: False, cpu
2021-09-14 18:43:55 [INFO]: model: BertTCREpitopeModel(
  (bert): ProteinBertModel(
    (embeddings): ProteinBertEmbeddings(
      (word_embeddings): Embedding(30, 768, padding_idx=0)
      (position_embeddings): Embedding(8192, 768)
      (token_type_embeddings): Embedding(1, 768)
      (LayerNorm): LayerNorm()
      (dropout): Dropout(p=0.1)
    )
    (encoder): ProteinBertEncoder(
      (layer): ModuleList(
        (0): ProteinBertLayer(
          (attention): ProteinBertAttention(
            (self): ProteinBertSelfAttention(
              (query): Linear(in_features=768, out_features=768, bias=True)
              (key): Linear(in_features=768, out_features=768, bias=True)
              (value): Linear(in_features=768, out_features=768, bias=True)
              (dropout): Dropout(p=0.1)
            )
            (output): ProteinBertSelfOutput(
              (dense): Linear(in_features=768, out_features=768, bias=True)
              (LayerNorm): LayerNorm()
              (dropout): Dropout(p=0.1)
            )
          )
          (intermediate): ProteinBertIntermediate(
            (dense): Linear(in_features=768, out_features=3072, bias=True)
          )
          (output): ProteinBertOutput(
            (dense): Linear(in_features=3072, out_features=768, bias=True)
            (LayerNorm): LayerNorm()
            (dropout): Dropout(p=0.1)
          )
        )
        (1): ProteinBertLayer(
          (attention): ProteinBertAttention(
            (self): ProteinBertSelfAttention(
              (query): Linear(in_features=768, out_features=768, bias=True)
              (key): Linear(in_features=768, out_features=768, bias=True)
              (value): Linear(in_features=768, out_features=768, bias=True)
              (dropout): Dropout(p=0.1)
            )
            (output): ProteinBertSelfOutput(
              (dense): Linear(in_features=768, out_features=768, bias=True)
              (LayerNorm): LayerNorm()
              (dropout): Dropout(p=0.1)
            )
          )
          (intermediate): ProteinBertIntermediate(
            (dense): Linear(in_features=768, out_features=3072, bias=True)
          )
          (output): ProteinBertOutput(
            (dense): Linear(in_features=3072, out_features=768, bias=True)
            (LayerNorm): LayerNorm()
            (dropout): Dropout(p=0.1)
          )
        )
        (2): ProteinBertLayer(
          (attention): ProteinBertAttention(
            (self): ProteinBertSelfAttention(
              (query): Linear(in_features=768, out_features=768, bias=True)
              (key): Linear(in_features=768, out_features=768, bias=True)
              (value): Linear(in_features=768, out_features=768, bias=True)
              (dropout): Dropout(p=0.1)
            )
            (output): ProteinBertSelfOutput(
              (dense): Linear(in_features=768, out_features=768, bias=True)
              (LayerNorm): LayerNorm()
              (dropout): Dropout(p=0.1)
            )
          )
          (intermediate): ProteinBertIntermediate(
            (dense): Linear(in_features=768, out_features=3072, bias=True)
          )
          (output): ProteinBertOutput(
            (dense): Linear(in_features=3072, out_features=768, bias=True)
            (LayerNorm): LayerNorm()
            (dropout): Dropout(p=0.1)
          )
        )
        (3): ProteinBertLayer(
          (attention): ProteinBertAttention(
            (self): ProteinBertSelfAttention(
              (query): Linear(in_features=768, out_features=768, bias=True)
              (key): Linear(in_features=768, out_features=768, bias=True)
              (value): Linear(in_features=768, out_features=768, bias=True)
              (dropout): Dropout(p=0.1)
            )
            (output): ProteinBertSelfOutput(
              (dense): Linear(in_features=768, out_features=768, bias=True)
              (LayerNorm): LayerNorm()
              (dropout): Dropout(p=0.1)
            )
          )
          (intermediate): ProteinBertIntermediate(
            (dense): Linear(in_features=768, out_features=3072, bias=True)
          )
          (output): ProteinBertOutput(
            (dense): Linear(in_features=3072, out_features=768, bias=True)
            (LayerNorm): LayerNorm()
            (dropout): Dropout(p=0.1)
          )
        )
        (4): ProteinBertLayer(
          (attention): ProteinBertAttention(
            (self): ProteinBertSelfAttention(
              (query): Linear(in_features=768, out_features=768, bias=True)
              (key): Linear(in_features=768, out_features=768, bias=True)
              (value): Linear(in_features=768, out_features=768, bias=True)
              (dropout): Dropout(p=0.1)
            )
            (output): ProteinBertSelfOutput(
              (dense): Linear(in_features=768, out_features=768, bias=True)
              (LayerNorm): LayerNorm()
              (dropout): Dropout(p=0.1)
            )
          )
          (intermediate): ProteinBertIntermediate(
            (dense): Linear(in_features=768, out_features=3072, bias=True)
          )
          (output): ProteinBertOutput(
            (dense): Linear(in_features=3072, out_features=768, bias=True)
            (LayerNorm): LayerNorm()
            (dropout): Dropout(p=0.1)
          )
        )
        (5): ProteinBertLayer(
          (attention): ProteinBertAttention(
            (self): ProteinBertSelfAttention(
              (query): Linear(in_features=768, out_features=768, bias=True)
              (key): Linear(in_features=768, out_features=768, bias=True)
              (value): Linear(in_features=768, out_features=768, bias=True)
              (dropout): Dropout(p=0.1)
            )
            (output): ProteinBertSelfOutput(
              (dense): Linear(in_features=768, out_features=768, bias=True)
              (LayerNorm): LayerNorm()
              (dropout): Dropout(p=0.1)
            )
          )
          (intermediate): ProteinBertIntermediate(
            (dense): Linear(in_features=768, out_features=3072, bias=True)
          )
          (output): ProteinBertOutput(
            (dense): Linear(in_features=3072, out_features=768, bias=True)
            (LayerNorm): LayerNorm()
            (dropout): Dropout(p=0.1)
          )
        )
        (6): ProteinBertLayer(
          (attention): ProteinBertAttention(
            (self): ProteinBertSelfAttention(
              (query): Linear(in_features=768, out_features=768, bias=True)
              (key): Linear(in_features=768, out_features=768, bias=True)
              (value): Linear(in_features=768, out_features=768, bias=True)
              (dropout): Dropout(p=0.1)
            )
            (output): ProteinBertSelfOutput(
              (dense): Linear(in_features=768, out_features=768, bias=True)
              (LayerNorm): LayerNorm()
              (dropout): Dropout(p=0.1)
            )
          )
          (intermediate): ProteinBertIntermediate(
            (dense): Linear(in_features=768, out_features=3072, bias=True)
          )
          (output): ProteinBertOutput(
            (dense): Linear(in_features=3072, out_features=768, bias=True)
            (LayerNorm): LayerNorm()
            (dropout): Dropout(p=0.1)
          )
        )
        (7): ProteinBertLayer(
          (attention): ProteinBertAttention(
            (self): ProteinBertSelfAttention(
              (query): Linear(in_features=768, out_features=768, bias=True)
              (key): Linear(in_features=768, out_features=768, bias=True)
              (value): Linear(in_features=768, out_features=768, bias=True)
              (dropout): Dropout(p=0.1)
            )
            (output): ProteinBertSelfOutput(
              (dense): Linear(in_features=768, out_features=768, bias=True)
              (LayerNorm): LayerNorm()
              (dropout): Dropout(p=0.1)
            )
          )
          (intermediate): ProteinBertIntermediate(
            (dense): Linear(in_features=768, out_features=3072, bias=True)
          )
          (output): ProteinBertOutput(
            (dense): Linear(in_features=3072, out_features=768, bias=True)
            (LayerNorm): LayerNorm()
            (dropout): Dropout(p=0.1)
          )
        )
        (8): ProteinBertLayer(
          (attention): ProteinBertAttention(
            (self): ProteinBertSelfAttention(
              (query): Linear(in_features=768, out_features=768, bias=True)
              (key): Linear(in_features=768, out_features=768, bias=True)
              (value): Linear(in_features=768, out_features=768, bias=True)
              (dropout): Dropout(p=0.1)
            )
            (output): ProteinBertSelfOutput(
              (dense): Linear(in_features=768, out_features=768, bias=True)
              (LayerNorm): LayerNorm()
              (dropout): Dropout(p=0.1)
            )
          )
          (intermediate): ProteinBertIntermediate(
            (dense): Linear(in_features=768, out_features=3072, bias=True)
          )
          (output): ProteinBertOutput(
            (dense): Linear(in_features=3072, out_features=768, bias=True)
            (LayerNorm): LayerNorm()
            (dropout): Dropout(p=0.1)
          )
        )
        (9): ProteinBertLayer(
          (attention): ProteinBertAttention(
            (self): ProteinBertSelfAttention(
              (query): Linear(in_features=768, out_features=768, bias=True)
              (key): Linear(in_features=768, out_features=768, bias=True)
              (value): Linear(in_features=768, out_features=768, bias=True)
              (dropout): Dropout(p=0.1)
            )
            (output): ProteinBertSelfOutput(
              (dense): Linear(in_features=768, out_features=768, bias=True)
              (LayerNorm): LayerNorm()
              (dropout): Dropout(p=0.1)
            )
          )
          (intermediate): ProteinBertIntermediate(
            (dense): Linear(in_features=768, out_features=3072, bias=True)
          )
          (output): ProteinBertOutput(
            (dense): Linear(in_features=3072, out_features=768, bias=True)
            (LayerNorm): LayerNorm()
            (dropout): Dropout(p=0.1)
          )
        )
        (10): ProteinBertLayer(
          (attention): ProteinBertAttention(
            (self): ProteinBertSelfAttention(
              (query): Linear(in_features=768, out_features=768, bias=True)
              (key): Linear(in_features=768, out_features=768, bias=True)
              (value): Linear(in_features=768, out_features=768, bias=True)
              (dropout): Dropout(p=0.1)
            )
            (output): ProteinBertSelfOutput(
              (dense): Linear(in_features=768, out_features=768, bias=True)
              (LayerNorm): LayerNorm()
              (dropout): Dropout(p=0.1)
            )
          )
          (intermediate): ProteinBertIntermediate(
            (dense): Linear(in_features=768, out_features=3072, bias=True)
          )
          (output): ProteinBertOutput(
            (dense): Linear(in_features=3072, out_features=768, bias=True)
            (LayerNorm): LayerNorm()
            (dropout): Dropout(p=0.1)
          )
        )
        (11): ProteinBertLayer(
          (attention): ProteinBertAttention(
            (self): ProteinBertSelfAttention(
              (query): Linear(in_features=768, out_features=768, bias=True)
              (key): Linear(in_features=768, out_features=768, bias=True)
              (value): Linear(in_features=768, out_features=768, bias=True)
              (dropout): Dropout(p=0.1)
            )
            (output): ProteinBertSelfOutput(
              (dense): Linear(in_features=768, out_features=768, bias=True)
              (LayerNorm): LayerNorm()
              (dropout): Dropout(p=0.1)
            )
          )
          (intermediate): ProteinBertIntermediate(
            (dense): Linear(in_features=768, out_features=3072, bias=True)
          )
          (output): ProteinBertOutput(
            (dense): Linear(in_features=3072, out_features=768, bias=True)
            (LayerNorm): LayerNorm()
            (dropout): Dropout(p=0.1)
          )
        )
      )
    )
    (pooler): ProteinBertPooler(
      (dense): Linear(in_features=768, out_features=768, bias=True)
      (activation): Tanh()
    )
  )
  (classifier): SimpleMLP(
    (main): Sequential(
      (0): Linear(in_features=768, out_features=512, bias=True)
      (1): ReLU()
      (2): Dropout(p=0.0, inplace)
      (3): Linear(in_features=512, out_features=2, bias=True)
    )
  )
)
2021-09-14 18:43:55 [INFO]: n_data: 610
2021-09-14 18:43:55 [INFO]: batch_size: 128
2021-09-14 18:43:55 [INFO]: Begin 0/5 prediction batch
Traceback (most recent call last):
  File "main.py", line 62, in <module>
    main()
  File "main.py", line 59, in main
    args.func(args)
  File "main.py", line 35, in run_exp
    experiment.evaluate()
  File "/home/hym/trunk/TCRBert/tcrbert/exp.py", line 154, in evaluate
…
